model.pt (torch, 90921 bytes, 24 tensors)

net.0.weight f4 [64, 12]
0	0xbdcd7b8f	-0.100333326
1	0xbd970180	-0.07373333
2	0xbe6aac13	-0.22917204
3	0xbf4de299	-0.80423886
4	0xbd5504b8	-0.052006453
5	0x3ec1abf2	0.37826496
6	0xbfe0332a	-1.7515614
7	0xbfc020bc	-1.500999
8	0x3f9433aa	1.1578267
9	0x3f1d2fb3	0.6140091
10	0x3ddd184c	0.1079565
11	0x3a51c61a	0.0008002237
12	0xbf157835	-0.58386546
13	0x3e302038	0.1719979
14	0xbed88458	-0.4228847
15	0xbe3dd700	-0.18539047
16	0xbd7d7430	-0.061878383
17	0xbe5477bb	-0.20748799
18	0xbe174da4	-0.14775711
19	0x3d9d338f	0.0767585
20	0xbf1a0573	-0.60164565
21	0xc0054256	-2.0821738
22	0x3dfa2f02	0.12215997
23	0xbe2be5ab	-0.1678683
24	0x3ddfa562	0.10920216
25	0xbef5ef4c	-0.48034132
26	0xbf08b581	-0.53401953
27	0xbf2e02f3	-0.6797325
28	0x3ebe69b9	0.37190035
29	0x3e2a8735	0.1665314
30	0xbe14fd3c	-0.14549726
31	0xbead72a5	-0.3387653
32	0xbffa93d5	-1.9576365
33	0x3f936d04	1.1517644
34	0xbf31c9e1	-0.6944867
35	0x3efb74a6	0.49112433
36	0x3e5e0cae	0.21684524
37	0xbe5fdad1	-0.21860816
38	0x3c5d4890	0.01350607
39	0xbe150cc6	-0.14555654
40	0xbeed6725	-0.46367756
41	0x3f5a9e82	0.85398114
42	0xbfcf9457	-1.6217145
43	0x3f50e74a	0.8160292
44	0x3f87ab0d	1.0599076
45	0xbf959994	-1.1687493
46	0x3f139020	0.5764179
47	0xbe87f484	-0.26553738
48	0xbe9833a1	-0.2972689
49	0x3e2777f8	0.16354358
50	0xbef478e2	-0.47748476
51	0x3e4633a6	0.1935564
52	0x3f434c26	0.7628807
53	0xbda50176	-0.08056919
54	0x3f3d2dc2	0.73897946
55	0xbf50904b	-0.81470174
56	0x3e868c51	0.26278928
57	0xbf32b33f	-0.6980476
58	0xbc79d3c4	-0.015248243
59	0xbdd3d819	-0.10343952
60	0x3e5aab05	0.21354301
61	0x3f749f7f	0.9555587
62	0x3f4434f6	0.7664331
63	0xbf842e7c	-1.0326686
64	0xbde1ee91	-0.11031831
65	0xbedd165a	-0.43181115
66	0x3e62d65e	0.22152087
67	0xbee49d11	-0.44651082
68	0x3e4719ad	0.19443388
69	0xbf5094b9	-0.8147693
70	0x3e610b49	0.21976961
71	0xbef8b37c	-0.48574436
72	0x3e023acc	0.12717742
73	0x3ecbec6a	0.39828807
74	0x3e20a31b	0.1568722
75	0x3e13ed20	0.14445925
76	0x3e2b2337	0.16712652
77	0xbea0ca25	-0.31404224
78	0xbe46ff3e	-0.19433305
79	0xbe888388	-0.2666285
80	0xbfd110cc	-1.6333251
81	0xbf293250	-0.66092396
82	0xbe814f15	-0.25255647
83	0xbed6be98	-0.41942286
84	0x3e9421f6	0.2893216
85	0xbe9309a3	-0.2871829
86	0x3e059ecf	0.13048862
87	0xbecb1fd0	-0.3967271
88	0x3f0d7bd5	0.5526708
89	0xbf6d1528	-0.92610407
90	0xbf132d57	-0.5749106
91	0xbe4b6f56	-0.1986669
92	0xbfee7512	-1.8629477
93	0x3ebe64a4	0.37186158
94	0xbc340d5a	-0.010989511
95	0xbf08084b	-0.53137654
96	0x3b93fb63	0.0045160516
97	0xbdc8da9d	-0.09807322
98	0x3f14cd6a	0.58125937
99	0x3c69bc52	0.0142660905
100	0x3e9ca41c	0.30593956
101	0xbed1a38f	-0.40945098
102	0xbf660b7e	-0.89861286
103	0xbe54047b	-0.20704834
104	0x3ef718d7	0.4826114
105	0x3d64b9bc	0.055841193
106	0x3ecd198f	0.40058562
107	0x3f10b44b	0.56525105
108	0xbeb10cbf	-0.34580037
109	0xbd60a418	-0.054843992
110	0xbe1b1470	-0.15144515
111	0xbd789544	-0.060689226
112	0xbf553745	-0.8328746
113	0xbf2662a7	-0.6499428
114	0x3f420fb6	0.75805223
115	0xbe0154d6	-0.12630019
116	0xbefc1545	-0.49234977
117	0x3f2a6238	0.6655612
118	0xbeab3018	-0.3343513
119	0xbe8eecc4	-0.27915013
120	0xbe05a9f0	-0.13053107
121	0xbecc27fd	-0.3987426
122	0x3e02f729	0.12789597
123	0xbd6d6415	-0.057956774
124	0xbddff717	-0.109358005
125	0x3e2fc8a7	0.17166387
126	0xbeb50365	-0.35354152
127	0xbda768da	-0.08174296
128	0x3fec5e97	1.8466367
129	0x400b576e	2.1772113
130	0x3ee3231d	0.44362727
131	0x3f0fb9e2	0.5614301
132	0xbe14abfa	-0.14518729
133	0x3ef8e7fe	0.48614496
134	0xbdb13947	-0.08653503
135	0x3eef4958	0.46735644
136	0xbe302d6b	-0.17204826
137	0xbd8af122	-0.06784274
138	0x3e347e1b	0.1762623
139	0xbdca1071	-0.09866417
140	0x3fd1c05c	1.6386828
141	0xc0917b43	-4.5462966
142	0x3eefb3bf	0.46816823
143	0xbf919b2a	-1.1375477
144	0x3e452dcf	0.19255756
145	0xbe379fa1	-0.17931987
146	0xbebee511	-0.3728414
147	0xbf227c0e	-0.6347054
148	0xbf3630db	-0.711683
149	0xbd5d69b0	-0.05405587
150	0xbd3d76cd	-0.046255875
151	0xbf80cf71	-1.0063306
152	0xbf050772	-0.51964486
153	0x3fb32436	1.3995426
154	0xbdcb1d01	-0.099176414
155	0x3ed55846	0.4166891
156	0x3f417f88	0.7558522
157	0x3f09372e	0.5359982
158	0xbdf3471f	-0.118788
159	0x3ef0558a	0.4694026
160	0x3d78c1a6	0.060731553
161	0xbe639a49	-0.22226824
162	0xbf286c18	-0.6578994
163	0xbf206739	-0.62657505
164	0xbf739581	-0.9515
165	0xbed57529	-0.4169095
166	0x3b99cced	0.0046936185
167	0x3eff2ad0	0.4983735
168	0x3ef4b0ab	0.47791037
169	0x3b83cb28	0.004022021
170	0x3e55ead5	0.20890363
171	0xbe7916ec	-0.2432515
172	0xbf27b368	-0.6550813
173	0xbec4ec31	-0.3846145
174	0x3f4c5b74	0.79827046
175	0x3f79afbb	0.9753377
176	0xbea4d9c7	-0.321974
177	0x3e298062	0.1655288
178	0x3e760c06	0.24028024
179	0xbcfb7a3b	-0.030697932
180	0x3eb72697	0.3577163
181	0xbe900ec9	-0.2813628
182	0x3ee4a23a	0.4465502
183	0xbf87fceb	-1.062406
184	0xbe12dede	-0.1434283
185	0xbf318407	-0.6934208
186	0x3d5a0ce2	0.053234942
187	0xbfa18161	-1.2617608
188	0xbf355d65	-0.70845634
189	0x3f6dbe21	0.9286824
190	0xbf06b978	-0.5262675
191	0x3f0eac88	0.5573201
192	0xbd5cf2aa	-0.05394236
193	0x3dec1d8e	0.115290746
194	0xbdaf91d4	-0.085727364
195	0x3edc4d82	0.43027884
196	0x3ee22fe0	0.4417715
197	0x3fd1e1ba	1.6397011
198	0xbd8c5442	-0.068520084
199	0xbda8e6de	-0.082471594
200	0xbf02318d	-0.5085686
201	0xbf9ebca6	-1.2401321
202	0x3e860ba1	0.26180747
203	0xbee854a0	-0.45377064
204	0x3e593df6	0.21215042
205	0x3ba1c88c	0.004937237
206	0xbe6c5686	-0.23079881
207	0x3e0a97cd	0.1353447
208	0x3f40619d	0.75148946
209	0xbf0803c2	-0.53130734
210	0xbfa47226	-1.2847335
211	0xbf76eeac	-0.96457934
212	0xbe847313	-0.25869045
213	0x3fc9f651	1.5778295
214	0x3dbc0087	0.09179788
215	0x3e60d1a3	0.2195497
216	0xbe247939	-0.16061868
217	0x3ef5f65e	0.48039526
218	0x3eb506cf	0.35356757
219	0xbdf56692	-0.11982454
220	0x3ed93d3a	0.42429525
221	0xbed9dbd9	-0.42550543
222	0x3edc2b8c	0.43001974
223	0x3ef99ecf	0.48753974
224	0x3ec48892	0.38385445
225	0xbf9b94ee	-1.2154825
226	0x3eacc552	0.33744293
227	0xbe740065	-0.23828276
228	0x3f19306e	0.5983952
229	0x3c5c7d66	0.013457632
230	0x3e78d30e	0.24299261
231	0xbd0d6bea	-0.034526743
232	0xbe0fc009	-0.140381
233	0xbe684c22	-0.22685292
234	0xbd7d0fd8	-0.061782688
235	0xbd3333e2	-0.04375065
236	0xc07cfb92	-3.9528546
237	0x3e86b859	0.2631252
238	0xbfb558b8	-1.41677
239	0xbe23cd57	-0.159963
240	0x3dcf43f2	0.101203814
241	0xbcbc8ad2	-0.023015413
242	0xbdee3c8a	-0.11632641
243	0xbf6eacb3	-0.9323227
244	0xbe9f7c41	-0.31149486
245	0xbdd505de	-0.1040151
246	0xbf09c543	-0.5381662
247	0x3f0de8f3	0.5543358
248	0xbe49522f	-0.19660257
249	0xbec08fd1	-0.37609723
250	0xbe5ffa52	-0.21872833
251	0x3e4ad458	0.19807565
252	0x3e85a467	0.26101992
253	0xbebd9676	-0.37028855
254	0x3ee6d4ef	0.4508433
255	0x3f4bdc62	0.7963315

net.0.bias f4 [64]
0	0xbf0a2f96	-0.5397886
1	0xbf637543	-0.888508
2	0xbf085f69	-0.53270584
3	0xbe966c73	-0.29379615
4	0xbfe4aca1	-1.7865182
5	0xbf6f9fcc	-0.93603206
6	0x3e307cd6	0.17235121
7	0xbe1da686	-0.15395555
8	0xbe806040	-0.25073433
9	0x3eec9317	0.4620597
10	0xbc3d43b2	-0.011551784
11	0x3f1abb09	0.60441643
12	0x3e89b796	0.26897877
13	0xbf91ed7a	-1.1400597
14	0xbf23d5d0	-0.63998127
15	0xbf41eedf	-0.75755113
16	0xbeb5a083	-0.35474023
17	0xbef88959	-0.48542288
18	0xbee17078	-0.4403112
19	0xbdf39c90	-0.11895096
20	0xbf0e69d4	-0.5563023
21	0x3f2d322b	0.67654675
22	0x3eff886a	0.49908763
23	0x3e86e6e6	0.26348037
24	0xbf942eb7	-1.1576756
25	0xbf998235	-1.1992861
26	0xbf2e1182	-0.67995465
27	0xbf2d119d	-0.67605
28	0xbf615ba7	-0.88030475
29	0xbf3c2ce2	-0.73505986
30	0x3f347bf7	0.70501655
31	0xbe2727aa	-0.16323724
32	0xbe1b583a	-0.15170375
33	0xbeb0b5db	-0.34513745
34	0xbf8b7424	-1.0894818
35	0x3d6592a6	0.056048058
36	0xbfad6971	-1.3547803
37	0xbf261c7a	-0.648872
38	0xbfb6c0ad	-1.427755
39	0xbf8999c0	-1.0750046
40	0xbf72c459	-0.9483085
41	0xbe80366b	-0.25041518
42	0xbe6e4d92	-0.23271778
43	0x3f3ae29d	0.73002034
44	0xbf6fcbd7	-0.9367041
45	0xbf1fa9ea	-0.62368643
46	0xbdb0a4c6	-0.08625178
47	0xbf033935	-0.51259166
48	0x3f5fb5c0	0.87386703
49	0xbe980208	-0.2968905
50	0xbf28aef3	-0.6589195
51	0xbf5f3c2d	-0.87201196
52	0xbf2803c4	-0.65630746
53	0xbfa4e86d	-1.2883431
54	0xbec2358d	-0.3793148
55	0x3e867aba	0.26265508
56	0x3e2cbf5f	0.16869877
57	0x3f84c1ed	1.0371681
58	0xbf498258	-0.78714514
59	0xbf8e9f98	-1.1142454
60	0xbf43854c	-0.7637527
61	0xbf0376bf	-0.5135307
62	0xbf1ce150	-0.612813
63	0xbec841e4	-0.3911277

net.2.weight f4 [64, 64]
0	0xbf0de8e0	-0.55433464
1	0x3e44f058	0.19232309
2	0xbef6284d	-0.48077622
3	0xbe5864be	-0.2113218
4	0xbe0045da	-0.12526646
5	0xbd2caa16	-0.042154394
6	0xbed84d3d	-0.42246428
7	0xbe5cdf23	-0.21569495
8	0xbd8bd4fe	-0.068277344
9	0xbe646616	-0.22304568
10	0x3db437f0	0.08799732
11	0xbee80b4f	-0.45321128
12	0xbe3a9717	-0.18221699
13	0x3d168e7c	0.036756977
14	0x3d41a009	0.047271762
15	0x3d16f0c4	0.036850706
16	0xbeb81bd4	-0.3595873
17	0xbed4bf00	-0.4155197
18	0xbf302224	-0.68802094
19	0x3e0ae495	0.1356376
20	0x3e877e31	0.26463464
21	0x3d88b6b6	0.06675474
22	0x3d62b3ad	0.055347133
23	0x3d830d81	0.0639906
24	0xbe25e6b4	-0.16201288
25	0xbecb1f05	-0.39672104
26	0xbf1e8d83	-0.6193468
27	0xbe824c95	-0.25449052
28	0xbecb8e38	-0.39756942
29	0xbcb9d01b	-0.02268224
30	0xbe9ea250	-0.3098321
31	0xbe1b49ea	-0.15164915
32	0x3deafae6	0.11473636
33	0xbeb541ef	-0.35401866
34	0xbee6636c	-0.44997728
35	0xbda40cbe	-0.08010243
36	0xbef5080c	-0.47857702
37	0xbf061a8e	-0.5238427
38	0x3dcaa4e5	0.098947324
39	0xbe83c4ef	-0.25736186
40	0xbcec3278	-0.02883266
41	0x3b505d01	0.0031793716
42	0x3e401da5	0.18761308
43	0xbea29f10	-0.3176198
44	0x3cf2abe0	0.029622972
45	0xbeea297c	-0.45734775
46	0x3e999bc8	0.30001664
47	0xbd194af2	-0.03742499
48	0xbf00c8f3	-0.50306624
49	0xbe6dab79	-0.23209943
50	0xbed8e277	-0.4236028
51	0xbe157b1d	-0.14597745
52	0xbe431765	-0.19051893
53	0xbe098082	-0.13427928
54	0xbed0e2ea	-0.40798122
55	0xbdff4a73	-0.12465372
56	0x3e43bbec	0.19114655
57	0xbe652bae	-0.22379944
58	0xbdccbc4a	-0.09996851
59	0xbedd8296	-0.43263692
60	0x3e45bf3e	0.19311234
61	0xbd816ea1	-0.06319929
62	0xbedd89a6	-0.4326908
63	0x3e39932e	0.18122551
64	0xbe96427f	-0.29347607
65	0x3e30a17b	0.172491
66	0xbdf36aac	-0.118855804
67	0xbe351bf8	-0.1768645
68	0x3e0cd175	0.13751777
69	0xbde01d7e	-0.10943125
70	0x3e58f25b	0.21186201
71	0xbeacb536	-0.33732003
72	0xbe9ab493	-0.30215892
73	0xbef31e33	-0.47483978
74	0xbe9bbd09	-0.3041766
75	0xbe807c0b	-0.25094637
76	0x3cca9cc1	0.02473295
77	0x3e6ee81d	0.23330732
78	0x3e22c81d	0.1589665
79	0xbe603a92	-0.21897343
80	0x3d7d4e60	0.061842322
81	0x3d2c46e1	0.042059783
82	0xbd570f0e	-0.05250459
83	0xbe375dd8	-0.17906892
84	0xbd492a6f	-0.049112733
85	0xbe7441ec	-0.23853272
86	0x3d214513	0.039372515
87	0x3db9c3eb	0.090705715
88	0xbedc8892	-0.43072945
89	0x3e048d29	0.12944473
90	0x3dfa1c87	0.122124724
91	0xbe152705	-0.14565666
92	0xbd56dbc0	-0.052455664
93	0xb9e2da31	-0.00043268644
94	0xbe2415c2	-0.16023925
95	0xbdd98f08	-0.10622984
96	0xbdc30678	-0.09522718
97	0xbd239628	-0.039938122
98	0x3d41ed29	0.047345314
99	0x3de41813	0.11137404
100	0xbea90595	-0.3301207
101	0xbe1da216	-0.15393862
102	0xbe90d0f5	-0.28284422
103	0xbdd9b392	-0.106299534
104	0x3d7c5549	0.06160477
105	0xbe8a87cf	-0.2705674
106	0xbe18b648	-0.14913285
107	0xbc034098	-0.008011006
108	0x3cfd3a3c	0.030911557
109	0x3d10a096	0.035309397
110	0x3d6181db	0.05505548
111	0xbe9f278d	-0.31084862
112	0xbc43828e	-0.011932982
113	0x3dc0a305	0.094060935
114	0x3deb11d0	0.11478007
115	0x3da39c9c	0.07988855
116	0xbe6d85db	-0.23195593
117	0xbe053c70	-0.13011336
118	0xbea3b7ee	-0.31976265
119	0xbdc3f77f	-0.095686905
120	0xbe4d300a	-0.20037857
121	0xbe9b841c	-0.3037423
122	0xbb243bd8	-0.0025060084
123	0xbe826269	-0.25465706
124	0xbe8fbb62	-0.2807265
125	0x3e84fa96	0.25972432
126	0xbe3775f4	-0.1791609
127	0x3dbf8cc4	0.09353021
128	0xbe97cb0a	-0.29647094
129	0xbe76d2a2	-0.24103788
130	0x3e49ea72	0.1971834
131	0xbf52af61	-0.82298857
132	0xbe34e15d	-0.17664094
133	0x3e0a67a6	0.13516101
134	0x3e19b4c9	0.1501037
135	0x3e8630e5	0.2620918
136	0x3dc5f893	0.096665524
137	0xbe1bdd71	-0.15221192
138	0xbea788bd	-0.3272151
139	0x3e4c1465	0.19929655
140	0xbd28ed6b	-0.041242044
141	0xbe4907e0	-0.1963191
142	0xbeacecc4	-0.33774388
143	0xbf3d2aa5	-0.73893195
144	0xbda03df2	-0.07824315
145	0x3e890788	0.26763558
146	0xbeebc89d	-0.46051493
147	0xbf278d4c	-0.65449977
148	0xbea47453	-0.32119998
149	0xbf2f5c1a	-0.6849991
150	0x3de68bbb	0.1125712
151	0xbfa53efd	-1.2909847
152	0x3d01efe5	0.031722922
153	0xbb607e9f	-0.003425516
154	0xbd29560e	-0.041341834
155	0x3d978062	0.07397534
156	0xbe2075a2	-0.15669873
157	0xbdc06c43	-0.09395649
158	0xbedc4305	-0.43019882
159	0xbc9778cd	-0.01849022
160	0x3ecc9a16	0.39961308
161	0xbeab1fc5	-0.33422676
162	0xbec554d9	-0.38541296
163	0xbe0cde90	-0.13756776
164	0x3dd7f652	0.10545029
165	0xbe2b57e2	-0.16732743
166	0x3e5eac10	0.21745324
167	0xbe29099e	-0.16507575
168	0x3d37e3e9	0.044895086
169	0xbe08fb0c	-0.13377017
170	0x3c629834	0.013830233
171	0xbe8916f1	-0.26775315
172	0x3cf01374	0.029306151
173	0xbf2788e5	-0.6544326
174	0xbdd2e889	-0.10298259
175	0xbdb44b36	-0.08803408
176	0xbdd89684	-0.105755836
177	0x3c945782	0.018108133
178	0xbe02edc5	-0.12786014
179	0xbf0b8a10	-0.5450754
180	0x3e283676	0.16427025
181	0xbe5d17e7	-0.2159115
182	0xbd849ac2	-0.0647483
183	0x3d2f73d0	0.042835057
184	0xbe0a3f7e	-0.13500783
185	0xbf001e44	-0.5004618
186	0xbea85343	-0.32876024
187	0x3e6d2675	0.23159201
188	0x3e259390	0.16169572
189	0xbd77cd07	-0.060498264
190	0xbede79b6	-0.43452233
191	0xbe0fcc58	-0.14042795
192	0xbe40be5c	-0.18822616
193	0xbe83f076	-0.25769395
194	0xbec49745	-0.3839666
195	0x3df254b3	0.11832561
196	0xbe56a8ed	-0.20962878
197	0xbe3eb9fc	-0.18625635
198	0xbe2246d2	-0.15847328
199	0xbe8e223b	-0.2776049
200	0xbe345e67	-0.17614137
201	0xbeca5d25	-0.3952419
202	0xbeb40436	-0.35159463
203	0xbc8c57e8	-0.01713176
204	0x3d35ea36	0.044412814
205	0x3e47940e	0.19490072
206	0xbe394d12	-0.18095806
207	0xbe7a4ff6	-0.24444565
208	0xbdca375d	-0.09873841
209	0xbf05f711	-0.5233012
210	0xbe1aa6ec	-0.15102738
211	0xbe17b84d	-0.14816399
212	0xbe2fe2c0	-0.17176342
213	0x3d324686	0.043524288
214	0xbedc6076	-0.43042344
215	0xbe062937	-0.1310166
216	0xbe029ee4	-0.12755924
217	0xbe7fb385	-0.24970825
218	0xbed6c76a	-0.41949016
219	0x3dc426b9	0.09577698
220	0xbd9d1c5b	-0.07671424
221	0x3e0e7a33	0.13913803
222	0xbead28f4	-0.33820307
223	0xbe5f90ca	-0.21832576
224	0xbe963a2c	-0.29341257
225	0xbd6f20d8	-0.05838093
226	0xbdcd5caf	-0.100274436
227	0xbe8c622f	-0.27418658
228	0xbe8dfd02	-0.27732092
229	0xbea3cdb3	-0.31992874
230	0xbe182232	-0.14856794
231	0xbe4bf55a	-0.19917813
232	0xbcaffc6c	-0.021482669
233	0xbed1c148	-0.40967774
234	0x3d19f636	0.03758832
235	0xbe676561	-0.22597267
236	0x3dfe7a15	0.12425629
237	0x3de00919	0.10939235
238	0xbe9c5cd3	-0.3053957
239	0xbd039abb	-0.032129984
240	0xbe10e9c7	-0.14151679
241	0xbe9d439a	-0.30715638
242	0xbed61947	-0.4181616
243	0xbe0650af	-0.13116716
244	0x3c4fc645	0.0126815485
245	0xbe397f52	-0.18114975
246	0xbebbdd14	-0.36692107
247	0xbe18135c	-0.14851135
248	0xbe10aaae	-0.14127609
249	0x3e6c265a	0.23061505
250	0xbe53ac06	-0.2067109
251	0x3e8969f6	0.26838654
252	0xbe1f3c48	-0.15550339
253	0x3e5f96a0	0.21834803
254	0x3e223dae	0.15843841
255	0xbe95662f	-0.29179522

net.2.bias f4 [64]
0	0x3c1e9c3b	0.009680803
1	0xbe24b491	-0.16084506
2	0xbe3a0ecc	-0.18169707
3	0xbdcd8007	-0.10034185
4	0x3e40d4f1	0.1883123
5	0x3d1ba8e8	0.03800288
6	0xbe221e25	-0.15831812
7	0xbe1669c1	-0.1468878
8	0xbe0bafd1	-0.13641287
9	0x3ed7d231	0.4215255
10	0x3f825da0	1.0184822
11	0xbe75421d	-0.23951001
12	0xbd80e38f	-0.06293403
13	0x3f9b1de8	1.2118502
14	0xbe851aee	-0.25997108
15	0xbcbe8e4d	-0.023261214
16	0xbe64e6d0	-0.22353673
17	0xbdb37ca0	-0.08764005
18	0xbe1dccd3	-0.15410165
19	0xbf045de0	-0.5170574
20	0xbdb27840	-0.08714342
21	0x3f0daea7	0.55344623
22	0x3f39ca99	0.72574764
23	0x3fd2696a	1.643842
24	0xbde0da25	-0.10979108
25	0xbf1144e9	-0.56745774
26	0x3f0dfbab	0.5546214
27	0x3f375c63	0.71625346
28	0xbf5548a5	-0.8331397
29	0xbe6b591b	-0.2298321
30	0xbd0acc8f	-0.03388649
31	0x3ebd6962	0.36994463
32	0xbcf77b29	-0.030210095
33	0x3fbd0a46	1.476876
34	0xbe1e7cf7	-0.15477358
35	0x3ec1060f	0.37699935
36	0xbdb8c2b3	-0.09021511
37	0x3f9ed5a2	1.2408946
38	0xbec4e424	-0.38455307
39	0x3facea03	1.3508915
40	0xbefbee14	-0.49205077
41	0xbc442f42	-0.011974158
42	0xbe5940a9	-0.21216072
43	0xbdec9663	-0.115521215
44	0x3f5e9648	0.8694806
45	0xbdab5346	-0.083654925
46	0x3f824d98	1.017993
47	0xbdeeff4c	-0.11669788
48	0xbe492cc9	-0.1964599
49	0x3e8529ea	0.2600854
50	0x3f8e7476	1.1129291
51	0x3f97e81c	1.1867709
52	0x3f2a81be	0.6660422
53	0x3ea2e9aa	0.31818897
54	0xbdb03092	-0.08603014
55	0x3e42be54	0.19017917
56	0xbe0296ca	-0.12752834
57	0xbdfb995a	-0.12285109
58	0x3fbeeb70	1.49156
59	0x3f5f4e6a	0.87229025
60	0xbe51cb54	-0.2048772
61	0x3ec0129b	0.37514195
62	0xbe810c4e	-0.252047
63	0x3e662707	0.22475825

net.4.weight f4 [5, 64]
0	0x3f15c53b	0.58504075
1	0xbcb83e93	-0.022490775
2	0xbe443e00	-0.19164276
3	0x3ebeaf9a	0.37243348
4	0x3f9b9277	1.2154073
5	0xbcc5e21e	-0.024155673
6	0xbda9c120	-0.08288789
7	0x3f0e883c	0.5567663
8	0x3e4f7554	0.20259601
9	0xbd644f32	-0.05573959
10	0x3dcb427c	0.0992479
11	0x3e22d0df	0.1589999
12	0x3d6a27f0	0.057166994
13	0x3d496965	0.049172778
14	0x3e9b7926	0.30365866
15	0x3ef5d5ca	0.4801467
16	0x3d2ecb73	0.042674493
17	0xbe52d3cb	-0.20588605
18	0xbe8ac0a2	-0.27100092
19	0x3e0a76f8	0.13521945
20	0x3d5ea518	0.054356664
21	0xbf192a14	-0.5982983
22	0x3d9c894d	0.076433755
23	0xbd083e23	-0.033262383
24	0xbdfe88d8	-0.124284446
25	0xbd1f8305	-0.03894331
26	0x3da87b54	0.08226648
27	0xbbfc8e08	-0.007707361
28	0x3d18de66	0.03732147
29	0xbef8641c	-0.48513877
30	0x3e45b726	0.19308147
31	0x3dace557	0.084421806
32	0xbdb6c6b0	-0.089246154
33	0x3d069f68	0.032866865
34	0xbe575e3e	-0.21032044
35	0xbe2873af	-0.1645038
36	0x3d44c2f3	0.04803748
37	0x3dc4132f	0.095739715
38	0x3f6d2c78	0.9264598
39	0xbe1d5d20	-0.15367556
40	0xbcd3679a	-0.025806237
41	0x3cc493d0	0.023996264
42	0xbd4c00ab	-0.049805325
43	0x3bcd0965	0.0062572234
44	0x3e40acfd	0.1881599
45	0x3e3ae709	0.18252195
46	0xbd8c2531	-0.06843031
47	0x3cb07537	0.021540267
48	0xbdf1b9d7	-0.11803024
49	0xbce7ae95	-0.02828149
50	0xbd4a5cbd	-0.04940485
51	0x3d853078	0.06503385
52	0x3dfc6a40	0.12324953
53	0x3dc5042c	0.09619936
54	0x3eae4d67	0.34043428
55	0xbd8be95c	-0.06831619
56	0xbcd787aa	-0.026309807
57	0x3cc6298d	0.024189735
58	0x3dfa8ab6	0.12233488
59	0x3ce1efaf	0.02758011
60	0xbdf31cb3	-0.11870708
61	0x3947a4af	0.00019039468
62	0xbe1ee93c	-0.1551866
63	0xbe4a5923	-0.19760565
64	0x3d486fb8	0.04893467
65	0x3e3ab2f6	0.1823233
66	0xbe0e127c	-0.13874239
67	0x3d0b073d	0.03394245
68	0xbef50a44	-0.47859395
69	0xbf112256	-0.5669302
70	0xbebb5d49	-0.36594608
71	0x3e0b83cd	0.13624497
72	0xbe6e453e	-0.23268601
73	0xbf384c58	-0.7199149
74	0xbebfad0a	-0.37436706
75	0x3f1d98a7	0.61561054
76	0x3eb9730d	0.3622059
77	0x3f63f372	0.89043343
78	0x3e79a49d	0.24379201
79	0x3e9a3b37	0.30123302
80	0x3db76e81	0.08956624
81	0x3e872a5c	0.26399505
82	0x3ebb1ed0	0.36546946
83	0xbe071bb6	-0.13194165
84	0xbdbc4b5d	-0.09194062
85	0xbdbffb0d	-0.09374056
86	0xbefbc2e7	-0.49172136
87	0xbf78ff2f	-0.9726438
88	0xbe3e17ed	-0.18563814
89	0xbf0421e1	-0.51614195
90	0xbeb8b3f8	-0.36074805
91	0x3ebbe73b	0.36699852
92	0x3e81507e	0.25256723
93	0x3ebd447d	0.36966315
94	0x3e380e14	0.1797412
95	0xbce7d844	-0.028301366
96	0xbf2c4481	-0.6729203
97	0xbea61931	-0.32441095
98	0x3daaa2b4	0.083318144
99	0x3ea698e9	0.32538536
100	0xbe663b54	-0.2248357
101	0xbef2066c	-0.47270525
102	0xbec91f4f	-0.392817
103	0x3e7e20d2	0.24817207
104	0x3f0629c6	0.5240749
105	0x3e10e1c6	0.14148626
106	0x3e8aeac7	0.27132246
107	0x3e90070d	0.2813038
108	0x3f6f7ab9	0.93546635
109	0x3e676d30	0.22600245
110	0x3ecbc4a8	0.39798474
111	0xbce22b8f	-0.027608661
112	0x3e08d564	0.13362652
113	0xbeb245d6	-0.34818906
114	0x3f334de5	0.7004073
115	0xbdc67150	-0.096895814
116	0x3fc7312f	1.5561885
117	0x3d8a6b10	0.06758702
118	0x3e44c9a9	0.19217552
119	0xbddddb3d	-0.10832832
120	0x3e8b64c6	0.27225322
121	0xbe01587a	-0.12631407
122	0xbf2279a8	-0.6346688
123	0xbeae90e7	-0.34094927
124	0xbf54c8ca	-0.8311888
125	0x3e884377	0.26613972
126	0xbe4bd85b	-0.19906752
127	0xbe85743f	-0.2606525
128	0xbe8cb513	-0.274819
129	0x3e915bd4	0.28390372
130	0x3dc9f39f	0.0986092
131	0x3da63e4a	0.081173494
132	0xbed116b4	-0.40837634
133	0x3e160401	0.14649965
134	0x3e84fe95	0.2597548
135	0x3daa2024	0.083069116
136	0x3e6c472e	0.23074028
137	0xbea37ffe	-0.31933588
138	0x3ebb44d6	0.36575955
139	0xbe833e52	-0.25633484
140	0xbcdf434e	-0.027253773
141	0xbef0ed1f	-0.4705591
142	0xbe599513	-0.21248274
143	0xbdfe613a	-0.12420888
144	0x3d0a4688	0.03375867
145	0x3e368ed4	0.17827922
146	0x3d9dc456	0.07703464
147	0x3e95e0c5	0.29273048
148	0xbe13900c	-0.14410418
149	0x3d4b5b76	0.04964777
150	0xbdfd01fd	-0.12353895
151	0x3ee78c1c	0.45224082
152	0xbde44d56	-0.11147563
153	0xbe131547	-0.14363585
154	0x3bb75fe6	0.005596149
155	0xbf7effd3	-0.99609107
156	0xbf896381	-1.0733491
157	0x3df2331d	0.11826155
158	0x3de78959	0.11305494
159	0xbecd1920	-0.4005823
160	0x3dcf8022	0.10131861
161	0x3f90264d	1.1261688
162	0xbe268b34	-0.1626404
163	0xbd1eddc4	-0.03878571
164	0xbc7ee32a	-0.01555709
165	0xbea6ccc1	-0.3257809
166	0xbeaa62b3	-0.33278427
167	0xbf6a3ce9	-0.9149919
168	0x3f0c2db7	0.54757255
169	0xbc116cba	-0.00887602
170	0xbe670842	-0.22561744
171	0xbd99a84b	-0.075028025
172	0xbf371fc0	-0.7153282
173	0x3e908853	0.28229007
174	0xbe3235a1	-0.1740327
175	0x3e830de9	0.2559655
176	0x3eaf717c	0.3426627
177	0x3e574d69	0.21025623
178	0xbe837945	-0.2567846
179	0x3f53c932	0.82728875
180	0xbf804b6f	-1.002302
181	0x3e7e6217	0.24842106
182	0xbd1c308d	-0.03813224
183	0x3eca7782	0.39544302
184	0xbe8ca1e0	-0.2746725
185	0x3e692697	0.22768627
186	0x3ea270eb	0.31726775
187	0xbe38440b	-0.17994706
188	0xbe2bf7ac	-0.16793698
189	0xbe74e79a	-0.23916474
190	0x3d5486da	0.051886417
191	0x3f093a61	0.53604704
192	0xbdd7fa5a	-0.10545798
193	0xbdf7787f	-0.1208353
194	0x3e787ae9	0.24265637
195	0xbe613d26	-0.21995983
196	0x3dbdbf0d	0.09264956
197	0x3ea33ea9	0.31883743
198	0xbe3f655d	-0.18691011
199	0x3e75f658	0.24019754
200	0x3da5fa27	0.081043534
201	0x3f01c212	0.5068675
202	0xbd9fc5e8	-0.078014195
203	0x3d4e5e27	0.05038276
204	0x3e76a756	0.24087271
205	0xbf3504ce	-0.70710456
206	0x3c1a2c32	0.009409951
207	0x3de2127f	0.11038684
208	0xbdb11cb5	-0.086480536
209	0x3e07c3a9	0.13258232
210	0xbdf91275	-0.121617235
211	0xbeabfb33	-0.33590087
212	0xbdb64710	-0.08900273
213	0x3f4dea36	0.804355
214	0x3f488c3b	0.78338975
215	0x3ed94adf	0.42439935
216	0x3e087d1d	0.13328977
217	0x3e41048a	0.18849388
218	0x3ee19646	0.44059962
219	0xbe1465a5	-0.144919
220	0x3f2347b8	0.6378131
221	0x3dc678c2	0.096910015
222	0x3e201bc4	0.15635592
223	0x3e4dc077	0.20092951
224	0x3d3da8f5	0.046303708
225	0xbeebadb8	-0.46030974
226	0x3e76d33f	0.24104021
227	0x3f2d2e3e	0.67648685
228	0x3d4c1b57	0.04983076
229	0xbe54a9b8	-0.20767868
230	0x3de501c9	0.11181981
231	0x3f864513	1.048983
232	0xbf801b2d	-1.0008293
233	0x3ef35f22	0.47533518
234	0xbe18a9b1	-0.14908482
235	0xbe193ac0	-0.14963818
236	0x3f0d0d47	0.55098385
237	0x3edace33	0.42735443
238	0xbeb5a6f3	-0.35478935
239	0xbe2d7a94	-0.16941291
240	0x3e4e40c9	0.20141901
241	0x3f2e2cd0	0.6803713
242	0x3ef15b03	0.4713975
243	0xbf0970a0	-0.5368748
244	0xbf533209	-0.8249822
245	0xbef2effa	-0.47448713
246	0x3d8b39bb	0.067981206
247	0xbd88a7c3	-0.06672623
248	0xbc27f51c	-0.01025131
249	0x3d50be89	0.05096296
250	0xbf0b8bfd	-0.5451048
251	0x3f31275b	0.69200677
252	0x3eb8d41a	0.3609932
253	0xbf68251f	-0.9068164
254	0x3ea24f99	0.31701353
255	0x3f1cc0bc	0.6123159

net.4.bias f4 [5]
0	0xc026bd51	-2.605305
1	0x3f7a231c	0.9770982
2	0xbe19f355	-0.1503423
3	0x3f4d196f	0.80116934
4	0xbee8ecb8	-0.45493102

net.0.weight f4 [64, 12]
0	0xbc9adb37	-0.018903358
1	0x3eb291d9	0.34876898
2	0xbe2fc06b	-0.17163245
3	0x3d86273d	0.06550453
4	0xbe345b10	-0.17612863
5	0xbeb46250	-0.35231256
6	0x3f2f1ea7	0.68406147
7	0x3dd61d97	0.104548626
8	0xbe49c6b2	-0.19704702
9	0xbf377c5c	-0.7167413
10	0xbd24b964	-0.040215865
11	0xbe6be875	-0.23037894
12	0x3d6078b6	0.05480262
13	0x3db92915	0.09041039
14	0x3f9574b3	1.1676239
15	0x3f1192d2	0.56864655
16	0x3f3f77bb	0.7479207
17	0x3ea5cfb2	0.3238502
18	0x3f16885f	0.58801836
19	0x3ee8b17e	0.45447916
20	0x3df6201d	0.12017844
21	0x3f23bd10	0.6396036
22	0x3e4fb933	0.20285492
23	0xbee3fd6d	-0.44529286
24	0xbe8c7a6f	-0.2743716
25	0x3f16c9ee	0.5890187
26	0xbdc0e327	-0.09418326
27	0x3df59784	0.1199179
28	0xbd5c6b03	-0.05381299
29	0xbc2b190b	-0.010442982
30	0xbd788e63	-0.060682666
31	0xbc8bdeb4	-0.017073967
32	0x401e07ca	2.4692254
33	0xc0913074	-4.5371647
34	0x3f386e82	0.7204362
35	0xbf71de70	-0.9448004
36	0x3e663e24	0.22484642
37	0x3d3fb735	0.04680558
38	0x3f391342	0.7229501
39	0xbebb04f9	-0.3652723
40	0xbf3972f4	-0.7244103
41	0x3daecebb	0.085355245
42	0x3e371b86	0.17881593
43	0xbe7b70a4	-0.24554688
44	0xbdf556bd	-0.11979435
45	0xbd1310e1	-0.03590477
46	0x3f17fae1	0.59367186
47	0xbebebc55	-0.3725306
48	0x3caedb2c	0.021344744
49	0xbe005011	-0.12530543
50	0x3eecd66d	0.46257344
51	0xbf1f6ae9	-0.62272507
52	0x3f47e062	0.78076756
53	0x3ef59c6e	0.4797091
54	0xbda182d2	-0.0788628
55	0xbe561839	-0.20907678
56	0xbf103888	-0.5633626
57	0xbf18c4f2	-0.59675515
58	0x3eddd132	0.43323666
59	0xbee428c6	-0.44562358
60	0xbe6775b8	-0.226035
61	0x3e089f35	0.13341983
62	0x3f56c367	0.8389191
63	0x3df5fded	0.12011323
64	0x3e710ec5	0.2354079
65	0x3e0ca0b3	0.13733177
66	0x3ea53244	0.32264912
67	0xbdfa1fd2	-0.122131005
68	0x3d8d67ac	0.069045395
69	0x3ecae4b5	0.39627615
70	0xbe9d39ad	-0.30708066
71	0x3e44bc31	0.19212414
72	0x3edb1d33	0.42795715
73	0x3e9fb9af	0.31196353
74	0xbdd62387	-0.10455995
75	0x3d80cf2c	0.06289515
76	0x3e1182d5	0.14210065
77	0xbe4f08b7	-0.20218168
78	0x3e953088	0.2913859
79	0xbeba8ba2	-0.36434656
80	0xbe559a7d	-0.20859714
81	0xbf056513	-0.5210735
82	0x3edda08a	0.43286544
83	0xbe4fa529	-0.20277847
84	0x3d9cd16c	0.076571316
85	0x3e0482f6	0.12940583
86	0xbd72f9e5	-0.05932035
87	0x3da85ae1	0.08220459
88	0xbdda5ba7	-0.106620125
89	0xbd936a73	-0.07198038
90	0xbeb7bd8d	-0.35886803
91	0x3ebcc84e	0.3687157
92	0xbeadc9e1	-0.33943084
93	0xbe05b2e3	-0.13056521
94	0x3f2791ef	0.6545705
95	0xbd108ce3	-0.03529061
96	0xbc22974e	-0.009923769
97	0x3e91b7e8	0.28460622
98	0x3ea914db	0.33023724
99	0xbe545c76	-0.20738396
100	0x3de89b12	0.11357702
101	0xbeb62c90	-0.35580873
102	0x3e1c5b2c	0.15269154
103	0x3ef98619	0.4873512
104	0xbeebc8ac	-0.46051538
105	0xbfa85d53	-1.315348
106	0x3e9863f4	0.29763758
107	0xbd17a8d5	-0.037026245
108	0xbe0d047a	-0.13771239
109	0x3eecaf43	0.46227464
110	0x3f1b4675	0.60654384
111	0x3ef9e635	0.48808447
112	0x3efcf8cd	0.4940857
113	0xbf2cc488	-0.6748738
114	0x3e16008a	0.14648643
115	0xbe8c71d7	-0.27430603
116	0x3de8ca5a	0.113667205
117	0xbe64d2db	-0.2234606
118	0x3deeb439	0.116554685
119	0xbd9a797a	-0.07542701
120	0xbf16842d	-0.58795434
121	0x3e146b57	0.14494072
122	0xbd94f195	-0.072726406
123	0x3e99572c	0.2994932
124	0xbe0f6d99	-0.14006652
125	0x3e8d91e0	0.27650356
126	0x3f565091	0.83716685
127	0x3ca1402d	0.019683922
128	0xbdc4f400	-0.09616852
129	0xc009ea0f	-2.1549108
130	0x3d5dd5a9	0.05415884
131	0xbfb9e326	-1.4522445
132	0x3db4471c	0.088026255
133	0xbe3ac943	-0.18240838
134	0x3f82072b	1.0158437
135	0x3f529b3d	0.82268125
136	0x3eb7cd3e	0.35898775
137	0x3e0fed2d	0.14055319
138	0x3ecf5dab	0.4050115
139	0x3ed9d50a	0.42545348
140	0xbe106111	-0.14099528
141	0xbca4e041	-0.020126464
142	0x3e12b5ac	0.14327115
143	0xbf09fbed	-0.53900033
144	0x3e5bd9b7	0.2146977
145	0x3d95d179	0.07315344
146	0x3d97d845	0.07414297
147	0xbe481e6b	-0.19542854
148	0xbd9b194c	-0.07573184
149	0xbd8c6b0f	-0.06856357
150	0x3e45d5d4	0.1931985
151	0x3e523e94	0.20531684
152	0xc022c7f4	-2.5434542
153	0xbf5cdb6e	-0.86272323
154	0xbeca0a41	-0.39460948
155	0xbe8e92df	-0.2784643
156	0x3f04182d	0.5159939
157	0x3e61b7b9	0.22042741
158	0x3de1c507	0.11023908
159	0x3e9811ef	0.29701182
160	0xbd4127ef	-0.047157224
161	0x3c9e922e	0.019356813
162	0xbb06c8e2	-0.0020566513
163	0x3ddf5188	0.10904223
164	0xc0729b3a	-3.7907243
165	0xbfbd6102	-1.479523
166	0xbf670c91	-0.9025355
167	0xbefba6f7	-0.49150822
168	0x3d30d17b	0.043168526
169	0xbd3c13ff	-0.045917507
170	0xbe0bf9bb	-0.13669483
171	0xbea0c86d	-0.31402913
172	0x3d39408c	0.045227572
173	0xbe4bde09	-0.19908918
174	0x3ec41b43	0.3830205
175	0x3ee666e4	0.45000374
176	0xbef5c97b	-0.4800528
177	0xbfddb0c4	-1.731957
178	0xbe154900	-0.14578629
179	0xbf7aefe6	-0.98022306
180	0x3e361c7b	0.17784302
181	0xbe11d3d8	-0.14240968
182	0x3ed5338b	0.41640887
183	0x3d01f3eb	0.03172676
184	0xbe9e1410	-0.3087468
185	0x3f010e97	0.5041289
186	0x3ed75ae4	0.42061532
187	0xbe005751	-0.12533309
188	0xbf74bfa7	-0.9560494
189	0x3f600f6d	0.8752354
190	0xbdbbf475	-0.09177486
191	0xbd30e12a	-0.043183483
192	0xbec08e29	-0.3760846
193	0xbd9163bf	-0.07099103
194	0x3e9e98ab	0.3097585
195	0x3e027290	0.12739015
196	0xbce26c73	-0.027639603
197	0xbe45b9e5	-0.19309194
198	0x3cb4510d	0.022011304
199	0x3e7a5360	0.24445868
200	0x3f901d34	1.1258912
201	0xbea7c2d9	-0.32765844
202	0xbe94e8c8	-0.29083848
203	0xbd3c7a95	-0.04601534
204	0xbeff2665	-0.4983398
205	0x3e8642b7	0.26222774
206	0x3d62a345	0.055331487
207	0x3eb57add	0.354453
208	0xbc8f37b3	-0.017482614
209	0x3d62c673	0.055365037
210	0x3e665fd9	0.224975
211	0xbda8d876	-0.08244412
212	0x3eac4209	0.3364413
213	0xc01aca3b	-2.4185932
214	0x3e2862f1	0.16443993
215	0xbf245c84	-0.6420367
216	0xbe07cffb	-0.13262932
217	0x3e80bf6a	0.25146037
218	0x3ee8dc4d	0.45480576
219	0x3d051f3d	0.032500494
220	0x3c86dd24	0.01646287
221	0x3d081d36	0.033230983
222	0x3d813601	0.063091286
223	0x3e2f1ef7	0.17101656
224	0xbfc990ad	-1.5747277
225	0xbfdcb8f5	-1.7243944
226	0xbe5ff25e	-0.218698
227	0xbf3f0bc2	-0.74627316
228	0x3de08a9b	0.10963937
229	0x3d5d4521	0.054021005
230	0x3e9208a0	0.28522205
231	0xbf7215f3	-0.9456474
232	0x3e950bc5	0.29110542
233	0xbea055c0	-0.31315422
234	0x3c525325	0.012837206
235	0xbf1429ed	-0.57876474
236	0x3ecd5c42	0.4010945
237	0x3eff8574	0.49906504
238	0xbf868cbc	-1.0511699
239	0xbf3dd4de	-0.74152935
240	0x3d27e17c	0.040986523
241	0x3ea726aa	0.32646686
242	0xbd977957	-0.073961906
243	0x3ed6e00d	0.41967812
244	0x3d7a3116	0.06108197
245	0xbe5aa706	-0.21352777
246	0x3e4b506d	0.19854899
247	0x3e3d1202	0.184639
248	0x3f2254d8	0.6341071
249	0xbf801044	-1.0004964
250	0x3f5cb9d9	0.8622108
251	0x3df8a493	0.12140765
252	0x3db964f1	0.09052456
253	0x3f03e7b7	0.51525444
254	0xbf865d43	-1.0497211
255	0xbf908016	-1.1289089

net.0.bias f4 [64]
0	0xbfe924c9	-1.8214351
1	0xbf57132a	-0.8401362
2	0x3f257c72	0.64643013
3	0xbf3b28cb	-0.7310912
4	0xbec6ca5a	-0.38826257
5	0xbf9db3a2	-1.2320445
6	0xbf603400	-0.87579346
7	0xbf4b46de	-0.7940501
8	0xbf711c2b	-0.94183606
9	0xbf20eed0	-0.628644
10	0xbf4e3737	-0.80553
11	0xbf68b24c	-0.9089706
12	0xbf49014e	-0.78517616
13	0x3ecdf8a0	0.40228748
14	0x3e1fa5d0	0.15590596
15	0xbf5edb96	-0.8705381
16	0xbfab27e0	-1.3371544
17	0xbf279faa	-0.65478003
18	0xbf92e262	-1.1475337
19	0xbf727270	-0.9470587
20	0xbfaa079d	-1.3283573
21	0xbf8c1ba5	-1.0945936
22	0xbee6b985	-0.45063415
23	0xbf266601	-0.64999396
24	0xbf81643c	-1.0108714
25	0xbf98918d	-1.1919419
26	0xbf68c96b	-0.9093234
27	0x3f1f0269	0.6211305
28	0x3e51f400	0.20503235
29	0x3e8cf884	0.27533352
30	0xbee35811	-0.44403127
31	0xbfaf703b	-1.3706125
32	0xbf8dfcfb	-1.1092829
33	0xbf1b3692	-0.6063014
34	0xbf2be374	-0.6714394
35	0xbf671374	-0.9026406
36	0xbf334d66	-0.70039976
37	0xbf601193	-0.87526816
38	0xbfa8c577	-1.3185261
39	0xbf357bd8	-0.70892096
40	0x3d89b818	0.06724566
41	0xbf4d5d75	-0.8022073
42	0xbf834213	-1.0254539
43	0xbdb456b0	-0.08805597
44	0xbf72b397	-0.9480528
45	0xbf5ac791	-0.85460764
46	0xbf1c08c8	-0.609509
47	0xbf39041b	-0.7227189
48	0x3e6a3789	0.22872747
49	0xbf19bc6b	-0.6005313
50	0xbf3e84e2	-0.74421513
51	0xbdcfca98	-0.101460636
52	0xbf8301ed	-1.0234963
53	0x3fa481ad	1.2852074
54	0xbf67e722	-0.90587056
55	0xbec82ea4	-0.39098084
56	0xbf1856e9	-0.59507614
57	0xbf922c07	-1.1419686
58	0xbff0e5a6	-1.8820083
59	0xbf51c5de	-0.81942546
60	0xbf46d6c9	-0.77671486
61	0xbf2326dd	-0.63731176
62	0xbef99c0d	-0.4875187
63	0xbf89df11	-1.07712

net.2.weight f4 [64, 64]
0	0xbf1ea784	-0.6197436
1	0xbdc7dd43	-0.09758999
2	0x3ecf7468	0.40518498
3	0x3e43295e	0.19058749
4	0xbf314c86	-0.6925739
5	0xbf0a3b34	-0.53996587
6	0x3ec5b75a	0.3861645
7	0xbb3f8626	-0.0029224246
8	0xbebac8d6	-0.3648135
9	0x3ec76796	0.38946217
10	0x3dd42a09	0.1035958
11	0x3dccb43b	0.09995314
12	0xbe21263b	-0.1573724
13	0xbec4eeb5	-0.3846337
14	0x3e87ee0b	0.265488
15	0xbed20e38	-0.41026473
16	0x3d982947	0.07429748
17	0xbf430bdb	-0.76189965
18	0xbe7b70f6	-0.2455481
19	0x3e4cc00a	0.19995132
20	0xbf85edca	-1.0463192
21	0xbeecb1e6	-0.46229476
22	0x3e086dd5	0.13323148
23	0xbf906711	-1.1281453
24	0xbe5654bb	-0.2093076
25	0xbf014301	-0.50492865
26	0x3d865ab6	0.065602705
27	0xbf8e4366	-1.1114318
28	0x3dd14970	0.10219085
29	0xbf254f53	-0.64574164
30	0xc00e581d	-2.224128
31	0xbeb638b6	-0.35590142
32	0xbf440e35	-0.7658418
33	0xbc281128	-0.010257997
34	0x3e8733b8	0.26406646
35	0xbe8d3b6a	-0.27584392
36	0xbe9d0eef	-0.30675456
37	0x3b798122	0.0038071354
38	0xbd089fc5	-0.033355493
39	0x3e103585	0.14082916
40	0xbf0a0fdc	-0.5393045
41	0x3ed85f9e	0.4226045
42	0xbf039dc9	-0.51412636
43	0xbffeb158	-1.9897871
44	0x3c76728e	0.01504196
45	0x3d3b4449	0.04571942
46	0xbf636ae2	-0.88834965
47	0xbe96eaf5	-0.29476133
48	0xbef4e48d	-0.4783062
49	0xbf974402	-1.1817629
50	0xbdbf8c9d	-0.09352992
51	0xbf1905fd	-0.5977476
52	0xbf1c18b8	-0.6097522
53	0x3f2aeee6	0.6677078
54	0xbd9c1bf3	-0.076225184
55	0xbf5a54d6	-0.852857
56	0xbf9a915a	-1.2075608
57	0x3e4f1768	0.20223773
58	0xbe583fd1	-0.21118094
59	0x3f23d476	0.63996065
60	0xbf04517b	-0.5168683
61	0xbf92143d	-1.1412426
62	0xbf111906	-0.5667881
63	0x3de165a6	0.11005716
64	0xbf06565c	-0.52475524
65	0xbf3cb89f	-0.7371921
66	0xbdc3c6f9	-0.095594354
67	0x3d8b1bfb	0.06792446
68	0xbd51780c	-0.051139876
69	0xbe796ad3	-0.24357156
70	0xbeadfac8	-0.33980393
71	0x3dfa1314	0.1221067
72	0xbf126228	-0.57181025
73	0xbf2c25e3	-0.6724531
74	0xbd9e2b7b	-0.07723137
75	0xbc7d52b8	-0.015461616
76	0xbecb11b5	-0.39661947
77	0xbf5c7ab6	-0.8612474
78	0xbe95043c	-0.29104793
79	0xbf13f38e	-0.5779351
80	0xbeb76a2d	-0.35823193
81	0x3e48300f	0.19549583
82	0xbf136ccf	-0.57587904
83	0xbea2cd44	-0.3179723
84	0x3f0b8ab3	0.54508513
85	0xbf154fca	-0.58324873
86	0x3f52c475	0.8233102
87	0xbcc5e087	-0.024154915
88	0xbe1d5eea	-0.15368238
89	0xbf50024e	-0.81253517
90	0xbecc7fc9	-0.39941242
91	0xbe6d9a78	-0.23203456
92	0xbdbd7055	-0.09249941
93	0xbe613074	-0.2199114
94	0xbfc3bdc5	-1.5292288
95	0x3e58136b	0.21101157
96	0xbf1e8c17	-0.6193251
97	0x3f0da70e	0.5533303
98	0x398c0f5f	0.00026714333
99	0xbeeaf9be	-0.45893663
100	0xbf36867c	-0.71298957
101	0xbf177bef	-0.5917348
102	0xbf8655bd	-1.0494915
103	0xbeda6795	-0.42657152
104	0xbfa047fd	-1.2521969
105	0xbf28e8d9	-0.659803
106	0xbedbcad5	-0.42928186
107	0xbee72bbb	-0.4515055
108	0xbf499635	-0.7874482
109	0xbd35ff14	-0.044432715
110	0xbeaaa640	-0.33329964
111	0xbe7a28e3	-0.2442966
112	0xbfc0af82	-1.5053561
113	0xbf89e881	-1.077408
114	0x3e54f4c6	0.20796499
115	0xbfaf9058	-1.3715925
116	0xbf791c25	-0.9730857
117	0x3d8c725b	0.06857749
118	0x3ee31b36	0.44356698
119	0xbf40e000	-0.75341797
120	0xbe58d74e	-0.21175882
121	0x3ef2617a	0.47339994
122	0xbfa6d566	-1.3033874
123	0xbc12bf27	-0.008956707
124	0xbeac853b	-0.33695397
125	0xbf5bc394	-0.85845304
126	0xbf49282d	-0.7857693
127	0xbe85366b	-0.2601808
128	0xbf108df4	-0.56466603
129	0x3eab4199	0.33448485
130	0x3ed3779c	0.41302192
131	0x3f21e149	0.6323438
132	0x3ddefeeb	0.108884655
133	0xbf496f0f	-0.78685087
134	0xbd3de486	-0.046360515
135	0xbdbdde9c	-0.09270975
136	0x3e44f0dd	0.19232507
137	0xbef64956	-0.48102826
138	0xbee65733	-0.44988403
139	0x3eac57fb	0.33660874
140	0xbefcef3d	-0.49401274
141	0x3e98dab8	0.2985437
142	0x3ec2634c	0.37966383
143	0xbf68195a	-0.90663683
144	0xbd90eb9a	-0.070761874
145	0xbf8929ad	-1.0715843
146	0xbfd0d228	-1.6314135
147	0x3c450518	0.01202514
148	0x3eca87d9	0.3955677
149	0xbfa22187	-1.2666482
150	0x3f2e4ee7	0.68089145
151	0x3b39c315	0.0028345038
152	0xbe622ce6	-0.2208744
153	0xbd120998	-0.03565368
154	0xbf660212	-0.8984691
155	0xbdac9d23	-0.08428409
156	0x3cd50e87	0.026007904
157	0xbf6ba978	-0.92055464
158	0xc025ca2f	-2.5904653
159	0x3e4e523e	0.2014856
160	0x3ec8a174	0.3918568
161	0x3f2688f2	0.6505271
162	0x3e87d0c2	0.26526457
163	0xbe15cfdc	-0.14630073
164	0xbde37220	-0.11105752
165	0xbf7486fa	-0.9551846
166	0xbf7ba07e	-0.98291767
167	0xbe969f25	-0.29418293
168	0xbf535663	-0.8255369
169	0x3e06033f	0.13087176
170	0x3e32a0da	0.17444173
171	0xbfba15fa	-1.4537957
172	0xbf1b8092	-0.6074306
173	0xbf19e228	-0.6011071
174	0xbf68ebd5	-0.9098485
175	0xbf0bb86c	-0.5457828
176	0xc002774f	-2.038532
177	0xbfabc350	-1.341898
178	0xbe6a9584	-0.22908598
179	0xbfb755ee	-1.4323099
180	0x3f326bde	0.6969584
181	0x3f34fb6f	0.7069616
182	0x3dff47b4	0.12464848
183	0xbe82a9e7	-0.2552025
184	0xbdf33f0a	-0.11877258
185	0x3ea54285	0.32277313
186	0xbd243dbd	-0.04009794
187	0x3e081355	0.13288625
188	0xbd052607	-0.03250697
189	0xbfabc83c	-1.3420482
190	0xbec514f9	-0.38492563
191	0xbf51be9a	-0.8193146
192	0xbe47d225	-0.19513758
193	0xbec85a05	-0.3913118
194	0xbe621cbb	-0.22081272
195	0xbe525153	-0.20538835
196	0x3e2b47af	0.16726564
197	0xbeadbcf4	-0.33933222
198	0xbc6bc13f	-0.014389335
199	0x39b46c2c	0.0003441287
200	0xbea7f806	-0.32806414
201	0xbe9dcb02	-0.30818945
202	0xbd052ca4	-0.032513276
203	0x3e2d22c4	0.16907793
204	0x3dfc9385	0.123328246
205	0xbe899cc2	-0.2687741
206	0xbd2b42e8	-0.041811854
207	0xbe7c1496	-0.24617228
208	0xbeb8ade4	-0.36070168
209	0xbe1372a1	-0.14399196
210	0xbe354b45	-0.17704494
211	0xbe9c2896	-0.30499715
212	0x3e2803c9	0.16407694
213	0xbeb21680	-0.3478279
214	0xbe8afc32	-0.27145535
215	0xbd18b96d	-0.03728621
216	0x3da13e48	0.07873207
217	0x3e1cb9ce	0.15305254
218	0x3e3782fe	0.17921063
219	0xbebca261	-0.36842635
220	0xbeb57723	-0.35442457
221	0xbe0f335e	-0.13984439
222	0xbd20b373	-0.039233636
223	0xbe10d232	-0.14142683
224	0xbdb0f7c4	-0.086410075
225	0xbe04d0a3	-0.12970214
226	0xbdacefa8	-0.08444148
227	0xbe078627	-0.13234769
228	0xbe1e31a6	-0.15448627
229	0xbd8f2f0f	-0.069913976
230	0x3cdc6278	0.026902422
231	0xbecbf5e7	-0.39836046
232	0xbe051894	-0.12997657
233	0xbe6c7ee3	-0.23095278
234	0xbe020dba	-0.12700549
235	0xbe0c54cb	-0.13704221
236	0x3caa6c6b	0.02080365
237	0x3e175e23	0.14782004
238	0x3df50f6c	0.11965832
239	0xbd979d9c	-0.074031085
240	0x3e01bb09	0.12669004
241	0x3df8fb93	0.12157359
242	0xbe5cce8f	-0.21563171
243	0x3d299522	0.04140199
244	0x3e023008	0.12713635
245	0xbea2601c	-0.3171395
246	0xbd44fdba	-0.048093535
247	0xbcd57cfc	-0.026060574
248	0x3e2ccf7d	0.16876025
249	0xbe516312	-0.20447949
250	0xbd822d56	-0.063563034
251	0x3d466d2c	0.04844396
252	0xbdd0eb8b	-0.10201176
253	0xbe2f5d8b	-0.17125528
254	0xbeb59fef	-0.35473582
255	0xbe6b6252	-0.22986725

net.2.bias f4 [64]
0	0x3f8129ec	1.0090919
1	0x3f51bee6	0.8193191
2	0x3f3c2043	0.7348673
3	0xbdb5310e	-0.08847247
4	0x3e95b4c8	0.29239488
5	0x3fcde3c4	1.6085134
6	0xbdcb8447	-0.09937339
7	0x3fa96373	1.3233474
8	0x3ee0c2e7	0.438987
9	0xbe120326	-0.14259014
10	0x3f28daf4	0.65959096
11	0x3fdb78db	1.7146257
12	0xbe04f790	-0.12985063
13	0xbccd8ee0	-0.025092542
14	0x3f88125f	1.0630606
15	0x3cf97497	0.030451102
16	0x3ec8caff	0.39217374
17	0x3f3de292	0.74173844
18	0xbdb1a195	-0.086733975
19	0x3ff2a601	1.895691
20	0x3f887b8e	1.0662706
21	0xbdd32361	-0.10309482
22	0x3f302570	0.68807125
23	0x3ef15329	0.4713376
24	0xbe4a2049	-0.19738878
25	0x3ea04213	0.3130041
26	0x3e315472	0.1731737
27	0xbd3c0f66	-0.045913123
28	0x3f91c57f	1.1388396
29	0x3f48b35b	0.78398675
30	0xbdd36bf4	-0.10323325
31	0xbb10a98b	-0.0022073712
32	0xbde95a4a	-0.113941744
33	0x3e43dec3	0.19127946
34	0x3ba00566	0.004883456
35	0xbc887c29	-0.016660767
36	0xbd9d0372	-0.07666673
37	0xbe6dd441	-0.232255
38	0xbda52bc5	-0.08064989
39	0x3e9e0a69	0.30867317
40	0x3e58d0bf	0.2117338
41	0xbd50922d	-0.050920654
42	0xbe3905f7	-0.18068682
43	0x3eec44fc	0.4614638
44	0x3d0950e2	0.0335244
45	0x3c6ae721	0.014337332
46	0x3fc8e385	1.5694433
47	0x3ea95312	0.3307119
48	0x3f44f3ea	0.76934683
49	0xbe5e8118	-0.21728933
50	0xbe211312	-0.15729931
51	0xbd0f6e94	-0.035017565
52	0xbe1f7cc3	-0.15574937
53	0x3fc90530	1.5704708
54	0x3d841e2f	0.064510696
55	0xbe19a03c	-0.15002531
56	0xbdeb149d	-0.11478541
57	0xbd88d10b	-0.06680497
58	0x3e518c50	0.20463681
59	0x3f98565b	1.1901354
60	0xbe11c966	-0.14236984
61	0x3d44eee1	0.048079375
62	0xbe583d4c	-0.21117133
63	0x3f147129	0.5798517

net.4.weight f4 [5, 64]
0	0xbe12a130	-0.143193
1	0x3df0e993	0.11763301
2	0xbcf4c3e3	-0.029878562
3	0xbd4a9916	-0.0494624
4	0x3e4eda99	0.20200576
5	0xbd8d51d7	-0.06900375
6	0xbd186b8a	-0.037211932
7	0x3d013063	0.031540286
8	0xbe2cfc11	-0.1689303
9	0xbe83375e	-0.2562818
10	0x3b7ee255	0.0038892229
11	0xbdc18b53	-0.09450402
12	0x3dbb5c52	0.09148468
13	0xbd0bd2ba	-0.03413651
14	0xbc94284f	-0.018085627
15	0x3f1af842	0.6053506
16	0x3e25b9c4	0.16184145
17	0x3e06f39b	0.13178866
18	0x3e3e6d16	0.185963
19	0xbe0ec3c8	-0.13941872
20	0x3db4cdfe	0.088283524
21	0xbe895cb4	-0.2682854
22	0xbc2f971d	-0.010717181
23	0xbe828e79	-0.25499323
24	0x3d4f3da0	0.05059588
25	0x3de6d19d	0.11270449
26	0x3d83edb7	0.06441825
27	0xbc961f0f	-0.018325357
28	0xbe14a872	-0.14517382
29	0x3df7b31d	0.1209471
30	0x3e079b50	0.13242841
31	0x3da66ac1	0.081258304
32	0xbdf6fdc0	-0.12060118
33	0x3e70973b	0.2349519
34	0xbea7a61e	-0.32743925
35	0xbea191bd	-0.31556502
36	0x3ebeae16	0.37242192
37	0xbdd1db95	-0.1024696
38	0xbd6fca77	-0.058542695
39	0x3ce63845	0.028103003
40	0x3f82793e	1.019325
41	0x3ebe9e3f	0.37230107
42	0x3e848bfa	0.25888044
43	0x3c2fba7b	0.010725613
44	0xbe077bcf	-0.13230823
45	0x3eaa2db0	0.33237982
46	0x3e2fca90	0.17167115
47	0x3e0129fc	0.12613672
48	0xbe64cb07	-0.22343074
49	0x3e1856d1	0.14876868
50	0xbe536987	-0.20645724
51	0x3e4f86d7	0.20266281
52	0x3c8df8bd	0.017330522
53	0xbe915467	-0.28384706
54	0x3ec2d1b0	0.38050604
55	0x3d4f29a4	0.05057682
56	0x3de224d2	0.11042179
57	0xbe9c5406	-0.30532855
58	0x3cb22192	0.021744523
59	0xbe07bbe8	-0.13255274
60	0xbe290140	-0.16504383
61	0x3df16a67	0.11787873
62	0x3e1f28eb	0.15542953
63	0xbe1f1c13	-0.15538053
64	0xbedf0eb6	-0.4356591
65	0xbea2c883	-0.31793603
66	0x3d936eed	0.07198892
67	0xbdfd6bd5	-0.12374083
68	0xbe729eee	-0.2369344
69	0xbf330997	-0.6993651
70	0x3db48d47	0.08816009
71	0xbdb336e0	-0.08750701
72	0xbe00afba	-0.12567034
73	0x3da446b4	0.08021298
74	0x3f078633	0.52939147
75	0x3f243b18	0.6415267
76	0xbe6e6593	-0.23280935
77	0x3e0c9b2f	0.13731073
78	0xbe835023	-0.25647077
79	0xbed59cea	-0.41721278
80	0xbe1fd92b	-0.15610187
81	0xbec97357	-0.3934581
82	0xbdd5a77a	-0.10432334
83	0xbf1c2ae0	-0.6100292
84	0x3f53bf1d	0.8271349
85	0x3df9f520	0.12204957
86	0xbd135c87	-0.035976913
87	0x3ea813ed	0.32827702
88	0x3e2ed331	0.1707275
89	0x3ec14991	0.3775144
90	0xbde09d29	-0.10967476
91	0xbeefa629	-0.46806458
92	0x3eca2dc7	0.3948805
93	0x3e983cad	0.29733792
94	0x3eb888be	0.36041826
95	0xbcc0d715	-0.02354006
96	0xbc88766b	-0.016658029
97	0x3e88ed5f	0.267436
98	0x3e99528a	0.29945785
99	0x3eaa1e77	0.33226368
100	0x3e3f1a87	0.18662463
101	0x3ec2b2b2	0.3802696
102	0x3ea92273	0.33034095
103	0x3ecdefd8	0.4022205
104	0xbe92095c	-0.28522766
105	0x3ec4405b	0.3833035
106	0x3e13ec0e	0.14445516
107	0x3e17c5d7	0.14821564
108	0x3d2cb616	0.04216584
109	0xbe0fb7da	-0.14034978
110	0x3effc21f	0.4995279
111	0x3d306e7c	0.043074116
112	0xbcf937a5	-0.030422041
113	0x3ec1b3d5	0.37832513
114	0xbda3002a	-0.07959016
115	0x3ea1b7f5	0.3158566
116	0x3e7e4cb1	0.24833943
117	0xbe61878d	-0.22024365
118	0x3de143ee	0.10999285
119	0xbe3e3147	-0.18573485
120	0xbd887d84	-0.06664565
121	0xbe05f263	-0.13080744
122	0x3d848f2e	0.06472622
123	0x3f52adb4	0.822963
124	0xbd8692b8	-0.06570953
125	0xbefd806b	-0.49512038
126	0x3d2af4dd	0.041737426
127	0xbe825cb9	-0.25461367
128	0x3e3b2b7c	0.18278307
129	0x3d460e88	0.0483537
130	0xbf05f4e2	-0.52326787
131	0xbe4d67a0	-0.20059061
132	0xbe1fb09f	-0.1559472
133	0x3f4f9aa5	0.81095344
134	0x3eda509e	0.4263963
135	0xbf1bd07b	-0.6086499
136	0x3e606243	0.21912484
137	0x3e8df5aa	0.2772649
138	0x3c80338d	0.015649581
139	0xbefb862f	-0.4912581
140	0x3de288e5	0.11061267
141	0xbe598189	-0.2124082
142	0xbec6b2b6	-0.3880822
143	0x3ccce5b3	0.025011873
144	0x3d3e56f6	0.04646965
145	0xbeda644a	-0.4265464
146	0x3ddb88bf	0.107194416
147	0x3e87d905	0.2653276
148	0xbd154958	-0.0364469
149	0xbf501759	-0.81285626
150	0xbe1956c0	-0.14974499
151	0x3e68b8dc	0.22726768
152	0xbe525d82	-0.20543483
153	0x3eb6e64b	0.35722575
154	0x3e800e96	0.25011128
155	0x3e230c74	0.15922719
156	0xbe114ee9	-0.14190258
157	0x3eb30c25	0.34970203
158	0x3d63e951	0.05564243
159	0x3ee31216	0.44349736
160	0x3ec8ce2a	0.3921979
161	0x3f074ac1	0.5284844
162	0xbe07c8c7	-0.13260184
163	0x3e0e139b	0.13874666
164	0xbeb4f5a1	-0.3534365
165	0xbeb856f2	-0.36003834
166	0xbe49aa67	-0.1969391
167	0xbda4415d	-0.080202796
168	0x3d983740	0.07432413
169	0xbd0a1e42	-0.033720262
170	0xbdf6862e	-0.120373115
171	0xbd7b189a	-0.06130276
172	0xbd201bfe	-0.039089195
173	0x3ef00b9c	0.46883857
174	0x3f83610c	1.0263991
175	0x3ea29e8e	0.31761593
176	0x3ef9bf62	0.48778826
177	0xbebf3051	-0.3734155
178	0x3ea25832	0.31707913
179	0xbe98651d	-0.29764643
180	0xbd98be13	-0.07458129
181	0x3ef4205e	0.47680944
182	0x3d9f2077	0.07769864
183	0x3e3d8598	0.18507993
184	0x3d78358f	0.060597952
185	0xbe0bb518	-0.136433
186	0x3ec31f95	0.38110033
187	0xbf12bcc6	-0.57319295
188	0xbe84f1f7	-0.25965855
189	0x3ea474ea	0.32120448
190	0xbe4ff685	-0.20308883
191	0x3e92ecdf	0.28696343
192	0x3f11abe3	0.56902903
193	0x3eb67901	0.35639194
194	0x3f1f9f63	0.6235258
195	0x3e324c45	0.17411907
196	0x3dcf32f7	0.10117143
197	0x3e8e6475	0.27811018
198	0x3ec95eee	0.39330238
199	0x3e665fae	0.22497436
200	0xbe790806	-0.24319467
201	0xbe9077c6	-0.2821638
202	0x3e6e9784	0.23299986
203	0xbf5b9df8	-0.85787916
204	0x3ddb2977	0.10701268
205	0x3dc6fe5b	0.09716483
206	0x3f829793	1.0202507
207	0xbf8e18be	-1.1101301
208	0xbd7abf09	-0.06121734
209	0x3f56dfe4	0.8393538
210	0xbee0e85f	-0.43927285
211	0xbf1e3a70	-0.6180792
212	0xbf8f5e69	-1.1200687
213	0xbee88954	-0.45417273
214	0x3ed1aae0	0.4095068
215	0x3ddb898d	0.10719595
216	0xbe1c2615	-0.15248902
217	0xbe7bd9bb	-0.24594776
218	0xbe3e1f35	-0.18566592
219	0xbec6d98b	-0.38837847
220	0xbf509148	-0.8147168
221	0xbf167407	-0.58770794
222	0x3f03129a	0.5120026
223	0xbe3ee1ef	-0.18640874
224	0x3e36fbf2	0.17869547
225	0xbeef231c	-0.46706474
226	0xbe0622cd	-0.13099213
227	0xbe3fa16f	-0.18713926
228	0x3c3b875b	0.0114458455
229	0xbd21ddf1	-0.0395183
230	0xbea19d64	-0.31565392
231	0x3d18ca00	0.037302017
232	0xbe9802c8	-0.29689622
233	0x3ec0396e	0.37543815
234	0xbee9b063	-0.45642385
235	0x3d8caa6c	0.06868443
236	0xbe2731a4	-0.1632753
237	0xbd2f52ee	-0.042803697
238	0xbed43557	-0.41446945
239	0xbef14de9	-0.47129753
240	0x3dbef954	0.09324899
241	0x3f168eee	0.58811843
242	0x3d99eb95	0.07515637
243	0xbc840722	-0.016116682
244	0x3f050391	0.51958567
245	0xbea0c5a9	-0.31400803
246	0x3eac51db	0.336562
247	0x3e2d94d8	0.1695131
248	0xbe79b775	-0.2438639
249	0x3e4d35d5	0.20040067
250	0x3d452110	0.048127234
251	0x3f0991b4	0.5373795
252	0xbe49e07e	-0.19714543
253	0x3f0ddf2c	0.5541866
254	0xbe5bf531	-0.21480252
255	0x3db7f6ec	0.089826435

net.4.bias f4 [5]
0	0xbfe39130	-1.7778683
1	0xbe862803	-0.26202402
2	0x3f15fbcf	0.58587354
3	0x3f1aaa5e	0.6041621
4	0x3e5867b5	0.21133311
